cifar_net.pth (torch_old, 249562 bytes, 10 tensors)

conv1.weight f4 [6, 3, 5, 5]
0	0xbca4f7a0	-0.020137608
1	0x3cbc882b	0.023014149
2	0x3e88ac56	0.26693982
3	0xbe291387	-0.16511355
4	0xbd6cbc91	-0.05779702
5	0xbddcafd4	-0.10775724
6	0x3e1873fb	0.14887993
7	0x3dbc28ff	0.09187507
8	0xbe4796fb	-0.19491188
9	0xbe825bf6	-0.25460786
10	0x3e0d6bca	0.1381065
11	0x3ea997fb	0.33123764
12	0xbf112978	-0.567039
13	0xbe9aff80	-0.30273056
14	0x3e856b28	0.26058316
15	0xbd192bd1	-0.037395302
16	0x3f04bc35	0.5184968
17	0xbf1d2d2f	-0.6139707
18	0xbf0568e1	-0.5211316
19	0x3f2bd4a1	0.6712132
20	0xbe16ae24	-0.14714867
21	0x3e2a7d09	0.1664926
22	0xbe7b6c58	-0.24553049
23	0xbedf0328	-0.43557096
24	0x3ec6cebc	0.388296
25	0xbe4e409d	-0.20141836
26	0xbce24dfc	-0.027625076
27	0x3e4c60cb	0.19958799
28	0xbd934852	-0.071915284
29	0xbda29986	-0.079394385
30	0xbd5fa436	-0.054599963
31	0x3b28b1f5	0.0025740836
32	0x3e492b2b	0.19645374
33	0xbd8d4fd7	-0.06899994
34	0x3cac32ec	0.021020375
35	0x3daf7e4a	0.085690096
36	0x3ee08dc5	0.43858162
37	0xbef4a7c6	-0.4778425
38	0xbe3e89d7	-0.18607269
39	0x3eb94633	0.3618637
40	0xbd829169	-0.06375391
41	0x3f069928	0.5257745
42	0xbf0c1bc7	-0.54729885
43	0xbeb64aef	-0.35604045
44	0x3f4d98a6	0.8031105
45	0xbe130911	-0.14358927
46	0x3e98c420	0.29837132
47	0xbe608b41	-0.21928121
48	0xbea3a7d6	-0.31963986
49	0x3ec345bf	0.3813915
50	0xbdc28760	-0.09498477
51	0xbe467434	-0.19380265
52	0x3dee1fb3	0.1162714
53	0xbe06f54c	-0.13179511
54	0xbe454017	-0.1926273
55	0xbb864757	-0.00409786
56	0x3d9035af	0.07041489
57	0x3e39cffe	0.18145749
58	0xbdb42a52	-0.087971345
59	0xbdcaa958	-0.09895581
60	0xbca33f48	-0.019927636
61	0x3e871176	0.2638051
62	0xbe9f0d56	-0.31064862
63	0xbdfa2fcd	-0.122161485
64	0x3ece8a58	0.40339923
65	0xbde21e81	-0.110409744
66	0x3ed6b1d6	0.41932553
67	0xbecf395e	-0.40473455
68	0xbeae6470	-0.34061003
69	0x3f20c6d1	0.6280337
70	0xbeae1b78	-0.34005332
71	0x3e81e1e8	0.25367665
72	0xbe45ef5e	-0.19329593
73	0xbe961f19	-0.293206
74	0x3ebf27a2	0.37334925
75	0x3e9debab	0.30843863
76	0x3ee756e1	0.4518347
77	0x3e94df0d	0.29076424
78	0x3eed94df	0.46402642
79	0x3e648575	0.22316535
80	0x3f193d6e	0.5985936
81	0x3f150160	0.58205223
82	0x3ed244b4	0.4106804
83	0x3ef1ef12	0.4725271
84	0xbbc311f9	-0.0059530702
85	0xbd568c54	-0.05237992
86	0xbde57a42	-0.112049595
87	0xbec19c0e	-0.37814373
88	0xbe457264	-0.19281918
89	0xbe0dd977	-0.13852488
90	0xbe8a6035	-0.27026525
91	0xbee360ed	-0.44409886
92	0xbeef66c1	-0.46758083
93	0xbe95bc7f	-0.29245374
94	0xbdd31602	-0.10306932
95	0xbe2c4781	-0.16824152
96	0xbd5641b7	-0.052308764
97	0x3d2d8846	0.04236629
98	0xba9ff2a4	-0.001220305
99	0xbe8b4886	-0.27203768
100	0xbd946a0a	-0.07246788
101	0xbc0e7679	-0.008695238
102	0x3e20ce37	0.15703665
103	0xbd2d7d6f	-0.04235595
104	0xbe393aa7	-0.1808878
105	0x3e486717	0.19570576
106	0x3e2dd77b	0.1697673
107	0x3e6114a6	0.21980533
108	0xbc01cde1	-0.0079226205
109	0xbd9cb7a9	-0.07652218
110	0xbeabc0eb	-0.33545622
111	0xbeec0d81	-0.46104053
112	0xbebbabfb	-0.36654648
113	0xbeb9be44	-0.36277974
114	0xbea616ed	-0.32439366
115	0xbeb91a1a	-0.36152726
116	0xbeb68aa6	-0.35652655
117	0xbe8a9e6f	-0.27074
118	0xbe7463d6	-0.2386621
119	0xbe3815f8	-0.1797713
120	0x3d17b258	0.037035316
121	0x3e23b34f	0.1598637
122	0x3e6a0934	0.22855073
123	0x3eaa6721	0.33281806
124	0x3e1a125d	0.15046068
125	0xbdde5a1c	-0.10857031
126	0xbe2f8509	-0.17140593
127	0x3d6daaeb	0.05802433
128	0x3cff9fd8	0.03120415
129	0xbdef7d8a	-0.116938666
130	0x3e33e88f	0.17569183
131	0x3e9770be	0.29578203
132	0x3db258ab	0.08708318
133	0x3e180604	0.14846045
134	0xbaa4baf2	-0.0012567921
135	0xbe45e517	-0.19325672
136	0xbe1ad552	-0.15120438
137	0xbeb4ed06	-0.35337085
138	0xbe20155e	-0.15633151
139	0xbe0e6d96	-0.13908991
140	0xbde1291c	-0.10994169
141	0xbd0f6a77	-0.035013642
142	0xbe41f689	-0.18941702
143	0x3d9e9fac	0.07745299
144	0x3da034a4	0.078225404
145	0x3e7c8373	0.24659519
146	0x3ede33ce	0.433989
147	0x3efdfa09	0.49604824
148	0x3e933269	0.28749397
149	0x3ed8b0c4	0.4232236
150	0xbe353a51	-0.17698027
151	0xbe16d1dc	-0.14728492
152	0xbea0f953	-0.3144022
153	0xbe45eba3	-0.1932817
154	0xbe1f3723	-0.15548377
155	0xbdcdad0d	-0.100427724
156	0xbe0d39b4	-0.13791543
157	0xbe399f08	-0.18127072
158	0xbe6a4362	-0.22877267
159	0xbe116f37	-0.14202581
160	0x3c01ba93	0.007918018
161	0xbd11a249	-0.035555158
162	0xbd55a53a	-0.052159525
163	0x3d3f3603	0.04668237
164	0xbb817d93	-0.003951737
165	0x3c3eb97b	0.011640902
166	0x3e96aefc	0.29430377
167	0x3e9762e0	0.29567623
168	0x3e92fae9	0.28707054
169	0x3de17d39	0.110102125
170	0x3e5eef02	0.21770862
171	0x3e941249	0.289202
172	0x3e9cd8cd	0.30634156
173	0x3eb0aac9	0.345053
174	0x3ea4236e	0.3205828
175	0xbc599b27	-0.01328162
176	0xbcd2a00c	-0.025711082
177	0xbdd23e7a	-0.10265823
178	0xbe584340	-0.21119404
179	0x3d57fbe5	0.05273046
180	0xbda747c1	-0.08167983
181	0xbd62390e	-0.055230193
182	0xbe7d15ea	-0.24715391
183	0xbe1bf4ca	-0.15230098
184	0xbe4a2a7e	-0.19742772
185	0xbe1074e5	-0.14107092
186	0xbe090c06	-0.13383493
187	0xbd9ecaac	-0.077535
188	0xbd3c4f10	-0.045973837
189	0xbcd01f20	-0.025405467
190	0xbd2dc845	-0.04242732
191	0x3c501fc6	0.012702888
192	0x3e06c9bf	0.13162898
193	0x3dd4ae09	0.10384757
194	0x3c288d68	0.01028762
195	0xbe24d503	-0.16096883
196	0x3c6af8d9	0.0143415565
197	0x3db8c02f	0.09021031
198	0xbcb80405	-0.022462854
199	0x3bb76a41	0.0055973832
200	0x3e9f04f3	0.31058463
201	0x3c227cbe	0.009917436
202	0x3dfc7bda	0.1232831
203	0xbd70a786	-0.058753513
204	0x3dffbaee	0.12486826
205	0x3e4a7f45	0.19775112
206	0x3d46edfc	0.048566803
207	0xbd566377	-0.05234095
208	0x3d125321	0.03572381
209	0x3d9acbff	0.075584404
210	0x3caadf15	0.020858327
211	0x3d6cc704	0.057806984
212	0x3e1d8044	0.1538096
213	0xbcb1d97b	-0.021710148
214	0x3cb8b40a	0.022546787
215	0x3d66f814	0.05638893
216	0x3e46cf80	0.19415092
217	0x3e228599	0.15871276
218	0x3dc5d9a4	0.09660652
219	0x3ca8afca	0.020591635
220	0x3a499d4c	0.00076909806
221	0xbdf77643	-0.120831035
222	0xbd8063b3	-0.06269016
223	0x3dad853c	0.08472678
224	0x3d8c3a47	0.06847053
225	0xbe1ad70d	-0.15121098
226	0xbe2c7f5e	-0.16845462
227	0xbe55510c	-0.20831698
228	0xbdf49314	-0.119421154
229	0xbe07d3a9	-0.13264336
230	0xbe8ce38d	-0.27517357
231	0xbe05a9ad	-0.13053007
232	0xbd88f07d	-0.066864945
233	0xbdaee02c	-0.08538851
234	0xbe31b419	-0.17353858
235	0xbe247981	-0.16061975
236	0xbe25692c	-0.16153401
237	0xbd2be8c4	-0.04197003
238	0xbe0452fc	-0.12922281
239	0xbcf83d13	-0.03030256
240	0xbe3953b5	-0.18098338
241	0xbe6ec3a8	-0.23316824
242	0xbe40d982	-0.18832973
243	0xbe867ace	-0.26265568
244	0xbe4d949f	-0.20076226
245	0xbe910e36	-0.28331155
246	0xbe27d128	-0.1638838
247	0xbe42f1e0	-0.1903758
248	0xbe8adc4f	-0.27121207
249	0xbe61e7e4	-0.22061116
250	0xbe0160a7	-0.12634526
251	0xbd9fa266	-0.07794647
252	0xbc8af0f0	-0.016960591
253	0x3d8087d8	0.0627591
254	0xbd11eadc	-0.03562437
255	0x3d752271	0.0598473

conv1.bias f4 [6]
0	0xbdc300a6	-0.09521608
1	0xbefaa15f	-0.4895124
2	0xbd8f2eb5	-0.069913305
3	0x3e3a3baf	0.1818683
4	0xbe76a1ea	-0.24085203
5	0xbedfb383	-0.43691644

conv2.weight f4 [16, 6, 5, 5]
0	0xbdb1e5fa	-0.08686443
1	0xbd18d9bb	-0.03731702
2	0x3cef2954	0.029194511
3	0x3d848c64	0.0647209
4	0x3b243d8a	0.0025061094
5	0x3c91168a	0.017710943
6	0xbd0054d5	-0.031330902
7	0xbe0c6f92	-0.13714436
8	0x3d3dfeaf	0.046385463
9	0x3e42e617	0.19033085
10	0xbdc65da6	-0.09685831
11	0xbe1d7739	-0.15377511
12	0xbdac627c	-0.08417222
13	0x3d595747	0.05306175
14	0x3d9f85c9	0.07789189
15	0xbe090cf9	-0.13383855
16	0xbd93fc7e	-0.072258934
17	0x3dc82c15	0.09774033
18	0x3ddea5dd	0.1087148
19	0x3d377bdb	0.044795852
20	0xbd7ff08c	-0.062485263
21	0x3e0e1ff4	0.13879377
22	0x3e148aba	0.14506045
23	0x3e158e67	0.14605103
24	0x3e2c89a3	0.16849379
25	0x3e290624	0.16506249
26	0x3e56c1c6	0.20972356
27	0x3e99ed4b	0.30063853
28	0x3e537f83	0.2065411
29	0x3e819a7e	0.2531318
30	0x3c7ad3da	0.015309298
31	0xbd126ee2	-0.035750277
32	0xbd378914	-0.044808462
33	0x3e1dfbca	0.15428081
34	0x3e5e42d4	0.2170518
35	0x3e2ed8dc	0.17074913
36	0x3e1abbf0	0.15110755
37	0x3e8307fc	0.2559203
38	0x3e4030b8	0.18768585
39	0x3e87f176	0.26551408
40	0x3de444c4	0.111459285
41	0x3dab9a7b	0.08379074
42	0x3e1c9657	0.15291725
43	0x3dc16e58	0.094448745
44	0x3ce689a6	0.028141808
45	0x3e36ed79	0.17864026
46	0x3d20161e	0.039083593
47	0x3d31f9fa	0.043451287
48	0xbdc78a45	-0.0974317
49	0xbdab4a13	-0.08363738
50	0xbd3b4561	-0.04572046
51	0xbdcdcb44	-0.100485355
52	0x3da42275	0.08014385
53	0x3db37ec2	0.087644115
54	0x3d69b3c4	0.057056203
55	0x3c3ad8ef	0.01140426
56	0xbb0b9b57	-0.0021302307
57	0x3bec5a43	0.0072129085
58	0xbdde625d	-0.10858605
59	0xbc681d83	-0.014167192
60	0x3e0c86f1	0.13723351
61	0x3bda0264	0.006653117
62	0x3d1d24a3	0.038365018
63	0xbd39367d	-0.04521798
64	0xbc74df04	-0.014945749
65	0xbc4d835d	-0.0125435265
66	0xbdebe1ea	-0.11517699
67	0xbc0330af	-0.008007213
68	0xbcf90ac5	-0.030400643
69	0xbe06154d	-0.13094063
70	0xbe493d02	-0.19652179
71	0xbe4eaeca	-0.20183864
72	0xbe1e10ad	-0.15436049
73	0xbdefd934	-0.1171135
74	0xbcf503b8	-0.029909
75	0x3d99e61d	0.07514594
76	0x3d948f46	0.0725389
77	0x3e161145	0.14655025
78	0x3e0403a9	0.12892021
79	0x3d1c262b	0.038122337
80	0x3bb27c88	0.005446974
81	0xbcc70708	-0.024295345
82	0x3da262ea	0.079290226
83	0x3e0d8fd1	0.13824393
84	0x3d9eb2d5	0.07748953
85	0xbd75c1ed	-0.059999395
86	0xbca4a7ef	-0.020099608
87	0x3bd3ecc2	0.0064674327
88	0xbe00d32a	-0.12580553
89	0xbd420964	-0.047372237
90	0x3dc19289	0.094517775
91	0x3d29ea00	0.041482925
92	0x3b0ba060	0.0021305308
93	0xbb29f709	-0.0025934598
94	0xbd701012	-0.058609076
95	0xbd0fcd4f	-0.035107907
96	0xbdb4d0e0	-0.08828902
97	0xbe09a440	-0.13441563
98	0xbcb9c23d	-0.022675628
99	0xbd8de0b7	-0.069276266
100	0xbde6bd38	-0.11266559
101	0xbd81d15a	-0.06338759
102	0xbcba0e97	-0.022712035
103	0x3c83b1aa	0.016075928
104	0xbd842144	-0.064516574
105	0xbdac13b8	-0.084021986
106	0x3d31b7e5	0.043388266
107	0xbdbddfd1	-0.09271205
108	0xbdb20121	-0.086916216
109	0xbda6388d	-0.08116255
110	0xbda931e2	-0.082614675
111	0xbde85c67	-0.11345749
112	0xbe410c8d	-0.18852444
113	0xbe145f2b	-0.14489429
114	0xbd8096e1	-0.06278778
115	0xbd3b80f9	-0.045777295
116	0xbd1e72b2	-0.0386836
117	0xbdbff332	-0.09372558
118	0xbd22c196	-0.0397354
119	0x3d309920	0.04311478
120	0xbe0ec61d	-0.13942762
121	0xbdbd2ff2	-0.092376605
122	0x3db32690	0.087475896
123	0x3d277671	0.04088444
124	0x3d8d6028	0.06903106
125	0xbe3a7173	-0.1820734
126	0xbdb15f54	-0.086607605
127	0xbe57c611	-0.2107165
128	0xbe31f832	-0.17379835
129	0xbdf0f121	-0.11764742
130	0xbd466251	-0.048433606
131	0xbd54155c	-0.051778182
132	0xbe0e68a8	-0.1390711
133	0xbe0bf70f	-0.13668464
134	0x3cd51ddd	0.026015216
135	0xbe1e65d3	-0.1546853
136	0xbdf21ffd	-0.118225075
137	0xbd70ded0	-0.05880624
138	0x3b5e24b6	0.0033896393
139	0x3db85ad0	0.09001696
140	0xbe3dfb4a	-0.1855289
141	0xbe071926	-0.13193187
142	0xbd2324a9	-0.039829884
143	0x3c88a997	0.01668243
144	0x3c9590f2	0.018257592
145	0xbd8f74f6	-0.070047304
146	0xbd3111d2	-0.043229885
147	0xbe3e7d62	-0.18602517
148	0xbe0d0ddf	-0.13774823
149	0xbe281ecc	-0.16417998
150	0x3c238103	0.009979489
151	0xbe170fbe	-0.14752099
152	0xbd1a3698	-0.03764972
153	0xbe172e61	-0.14763786
154	0x3d1522b7	0.03641006
155	0xbe4d85ca	-0.20070568
156	0x3e1c1c73	0.15245228
157	0x3d53a518	0.051671118
158	0x3dfb4bf4	0.12270346
159	0xbdd9243d	-0.10602615
160	0xbc083658	-0.008313738
161	0xbdf9892d	-0.12184367
162	0x3d9b3e2d	0.075802185
163	0x3e0a9598	0.13533628
164	0xbce7a18e	-0.028275277
165	0x3e52f688	0.20601857
166	0xbe3c4b66	-0.18388137
167	0x3d3823ba	0.044955947
168	0xbdf15f69	-0.11785776
169	0x3e04ddca	0.12975231
170	0xbda17f39	-0.07885594
171	0x3e2922fb	0.1651725
172	0xbe2bfcb2	-0.16795614
173	0x3d6b98ba	0.0575187
174	0xbd8011bf	-0.06253385
175	0x3e3c9669	0.18416752
176	0x3d847fbe	0.064696774
177	0xbbb18f20	-0.005418673
178	0xbe0607ef	-0.13088964
179	0xbcfd8653	-0.03094784
180	0x3e555d06	0.20836267
181	0x3dde4c9b	0.10854455
182	0x3d8dae9c	0.0691807
183	0xbd6277eb	-0.055290144
184	0xbdc647d0	-0.09681666
185	0xbd3ae894	-0.04563196
186	0xbd0e1280	-0.03468561
187	0x3cd88701	0.026431562
188	0x3d603d5c	0.054746017
189	0xbceba6eb	-0.028766116
190	0xbe0e01bb	-0.13867848
191	0xbe230d76	-0.15923104
192	0x3c353d72	0.011062013
193	0xbd5ecec4	-0.054396406
194	0xbbf39f53	-0.0074347644
195	0xbd815fd0	-0.06317103
196	0xbd8099cd	-0.06279335
197	0xbd588792	-0.052863665
198	0xbd61e195	-0.055146772
199	0x3cd3b9fe	0.025845524
200	0xbe1d0a43	-0.15335946
201	0xbc05096c	-0.008119922
202	0xbdc43988	-0.09581286
203	0x3ba30003	0.0049743666
204	0xbe2a8bcf	-0.16654895
205	0x3c6f748d	0.01461519
206	0xbdb8f7d9	-0.09031648
207	0xbde1da03	-0.110279106
208	0xbc76e33d	-0.015068826
209	0xbe148a9e	-0.14506003
210	0xbc3be8a4	-0.01146904
211	0xbda8b4a6	-0.08237581
212	0xbcb0f38d	-0.021600509
213	0xbe1dc40e	-0.1540682
214	0xbd9550af	-0.0729078
215	0xbdf79ff4	-0.120910555
216	0xbdbddb95	-0.092703976
217	0x3c1d6678	0.00960695
218	0x39b36e08	0.0003422352
219	0xbd313b0e	-0.04326921
220	0xbda2c181	-0.07947064
221	0xbdaef036	-0.0854191
222	0x3c478c98	0.012179516
223	0x3e0d81e4	0.1381908
224	0x3ba1cf97	0.0049380767
225	0xbe1d1bbd	-0.15342613
226	0xbe675e55	-0.22594579
227	0xbe15a04b	-0.14611928
228	0xbe45469c	-0.19265217
229	0xbd8e598c	-0.069506735
230	0xbe3a99b9	-0.18222703
231	0xbdcd4e78	-0.10024732
232	0xbc1415f7	-0.00903844
233	0xbe0e2ca8	-0.13884223
234	0xbdbf994d	-0.09355412
235	0xbe2f5343	-0.17121606
236	0xbc222391	-0.009896175
237	0xbdd27cd3	-0.102777146
238	0xbd9e04af	-0.07715737
239	0xbc8ac16d	-0.016937936
240	0xbdd9209c	-0.10601923
241	0xbd896b5c	-0.0670993
242	0xbe3df449	-0.18550219
243	0xbe1801b5	-0.14844401
244	0xbd74b9a7	-0.059747364
245	0xbe1727ea	-0.1476132
246	0xbd0f4de1	-0.03498638
247	0xbe11b894	-0.14230567
248	0xbde30422	-0.11084773
249	0xbd626bce	-0.05527859
250	0x3dfb23c9	0.12262685
251	0x3e3946dc	0.18093437
252	0x3d43ff97	0.04785117
253	0x3ce83925	0.028347561
254	0x3ce8a135	0.028397182
255	0xbd2482b8	-0.040163726

conv2.bias f4 [16]
0	0xbd7d5fe1	-0.061859015
1	0x3e88531b	0.26625904
2	0x3f4376cb	0.7635314
3	0x3f25cd2e	0.64766204
4	0x3ebbd1ac	0.36683404
5	0xbe2e806b	-0.17041175
6	0x3def160f	0.11674129
7	0x3ee176aa	0.44035846
8	0xbe34b646	-0.17647657
9	0x3ebf9ec6	0.37425822
10	0xbf2b3f3d	-0.6689337
11	0xbc9bc187	-0.01901318
12	0xbe0880f4	-0.13330442
13	0xbe1e3f92	-0.15453938
14	0x3d45eba5	0.04832043
15	0xbe6e00c6	-0.23242483

fc1.weight f4 [120, 400]
0	0x3cf7aca4	0.030233689
1	0xbc903776	-0.01760457
2	0xbc28a391	-0.0102929035
3	0xbd5e6073	-0.0542912
4	0xbd3d6ff5	-0.04624935
5	0x3d6961b3	0.05697794
6	0xbb17a2a6	-0.0023137718
7	0x3c489cf2	0.01224445
8	0xbd7ebe19	-0.06219301
9	0xbd185ffc	-0.037200913
10	0xbc135cfa	-0.008994335
11	0xbd8b721d	-0.06808875
12	0x3cc52ccc	0.024069212
13	0xbc9920e1	-0.018692436
14	0x3c939496	0.018015187
15	0x3d34325a	0.04399333
16	0xbbac4698	-0.005257439
17	0xbd81d2b9	-0.0633902
18	0xbd7d3890	-0.06182152
19	0xbd8693b4	-0.06571141
20	0xbbfd2366	-0.007725167
21	0xbcba8ab5	-0.022771219
22	0xba075dc4	-0.00051638135
23	0x3c20aba9	0.009806552
24	0x3cd0ef3f	0.025504706
25	0xbd22dea4	-0.039763108
26	0xbb27d927	-0.002561161
27	0xbbc3090e	-0.005952007
28	0xbb2f397a	-0.002673714
29	0xbc7d5749	-0.015462705
30	0xbd708898	-0.058724016
31	0xbd14cb1f	-0.036326524
32	0x3d1b034f	0.037844952
33	0x3d0b53b3	0.03401537
34	0x3bed4629	0.0072410298
35	0xbc6a0897	-0.014284275
36	0x3c45ca6d	0.012072188
37	0x3b9f75b9	0.0048663286
38	0x3d28c80c	0.041206405
39	0x3cdeeb19	0.027211713
40	0x3d35608a	0.04428152
41	0xbd5488d9	-0.05188832
42	0x3c806917	0.01567511
43	0xbc6675e4	-0.014066193
44	0x3d4abbed	0.049495626
45	0x3b82eabc	0.0039952677
46	0xbd02ba07	-0.03191569
47	0x3b0649f3	0.0020490855
48	0xbd62c200	-0.055360794
49	0xbcd5f61f	-0.026118336
50	0x3c43082a	0.011903802
51	0x3c78dd82	0.01518953
52	0x3d0f3aa4	0.034968033
53	0xbcb5ef2b	-0.02220877
54	0x3d227cc8	0.039669782
55	0x3d1e5932	0.038659282
56	0x3c977488	0.018488184
57	0xbb63acc5	-0.003474043
58	0xbc360fef	-0.011112197
59	0xbcc00677	-0.023440583
60	0x3cadf015	0.021232644
61	0x3d12f1c2	0.03587509
62	0x3c212d01	0.00983739
63	0x3cbbbaee	0.022916283
64	0xbcd1a047	-0.025589122
65	0x3c40ced0	0.011768058
66	0x3c9b8084	0.01898218
67	0x3d7e5cbd	0.06210016
68	0xbd0cda48	-0.034387857
69	0x3a4b09d2	0.0007745299
70	0xbd4f1c56	-0.050564133
71	0xbafb7b6a	-0.001918656
72	0xbd32cb78	-0.043651074
73	0xbd19f681	-0.0375886
74	0xbca327f0	-0.019916505
75	0x3d81f7a3	0.06346061
76	0xba8a9d56	-0.0010575454
77	0x3d6b27b8	0.057410926
78	0xbbf8e76e	-0.007595948
79	0x3d485140	0.04890561
80	0xbb1c3f3e	-0.0023841406
81	0x3c5fc898	0.013658665
82	0xbcd4298f	-0.025898723
83	0x3ca3979c	0.019969754
84	0x3bc60cf8	0.0060440265
85	0x3d617260	0.055040717
86	0xbc01eba5	-0.007929717
87	0xbced702b	-0.02898415
88	0x3b8ab763	0.004233287
89	0x3d8964c2	0.06708671
90	0x3ce345bf	0.027743218
91	0x3d6bf0f2	0.05760283
92	0x3d4177c4	0.047233358
93	0xbc9d30cf	-0.019188313
94	0x3c864ef0	0.016395062
95	0xbc8c616c	-0.017136298
96	0x3c67b332	0.014141845
97	0xbcbf70c0	-0.023369193
98	0x3d67a23c	0.056551203
99	0xbb2eb807	-0.0026659982
100	0x3c5f3f3f	0.013625919
101	0xbcb83354	-0.022485413
102	0x3aa3d15a	0.0012498305
103	0x3bfd6950	0.0077335015
104	0x3bd18831	0.006394409
105	0xbd2ee336	-0.042697154
106	0x3d3e37c6	0.04643991
107	0xbca9f40e	-0.020746257
108	0x3d199a14	0.037500456
109	0xbd1fcc0d	-0.039012957
110	0xbce974f0	-0.028498143
111	0x3cf0fd18	0.02941756
112	0x3d955156	0.07290904
113	0xbaf28caf	-0.0018505062
114	0xbd134521	-0.0359546
115	0xbcad0d50	-0.021124512
116	0xbbc0e422	-0.0058865706
117	0x3b9b4d34	0.004739428
118	0x3c8b7ca6	0.01702721
119	0xbd22442e	-0.039615802
120	0xbcfbb04d	-0.030723715
121	0xbc0f0f54	-0.008731682
122	0x3d47694f	0.048684414
123	0xbd0fd52f	-0.035115417
124	0xbc44fff6	-0.0120239165
125	0xbc665b02	-0.014059784
126	0xbd0b5848	-0.03401974
127	0x3c20a54c	0.009805035
128	0x3c2c9b63	0.010535094
129	0xbae86b72	-0.0017732217
130	0xbd44847c	-0.04797791
131	0x3cb97f95	0.022643844
132	0xbcd7703a	-0.026298631
133	0x3d3e4c3e	0.04645943
134	0xbce49b8e	-0.027906206
135	0xbd825d3f	-0.063654415
136	0xbd2dd63f	-0.04244065
137	0xbd3b52b7	-0.04573318
138	0xbcfc63f0	-0.030809373
139	0xbd3e6ea8	-0.04649225
140	0x3d05ea3d	0.03269409
141	0xbd1ddad0	-0.038538754
142	0xbc862089	-0.016372936
143	0xbc5fe452	-0.013665276
144	0x3b3c4af4	0.00287312
145	0x3d572685	0.05252697
146	0x3d1a1278	0.03761527
147	0xbcc2306b	-0.023704728
148	0x3c048a82	0.008089663
149	0x3cc77bf5	0.0243511
150	0xbd9b0a76	-0.07570355
151	0x3d1727bc	0.036903128
152	0xbc234b63	-0.009966704
153	0x3cc79f01	0.024367811
154	0xbd291d8a	-0.041287936
155	0xbd137542	-0.036000498
156	0xbd259a16	-0.04043015
157	0x3c0aba1d	0.008467224
158	0x3bb7872c	0.0056008305
159	0x3c4de4c5	0.01256675
160	0x3c4f7dbc	0.012664255
161	0xbc3dbd26	-0.011580741
162	0x3d1f5b14	0.03890522
163	0x39b00f33	0.0003358066
164	0x3d15ba47	0.0365546
165	0xbd2f6c24	-0.04282774
166	0xbc5f39a6	-0.013624584
167	0x3d785e20	0.06063664
168	0x3d2bbe5b	0.041929584
169	0x3d01518b	0.031571906
170	0x3ccb15e1	0.024790706
171	0xbd0e9a89	-0.034815345
172	0x3d1d660c	0.038427398
173	0x3c1f7dfd	0.009734628
174	0x3c0a8ff7	0.008457175
175	0x3cb832ff	0.022485254
176	0x3ca392ef	0.019967524
177	0xbd0cb8ac	-0.034355804
178	0xbcc4883b	-0.023990741
179	0xbc8f959e	-0.017527398
180	0xbaab055a	-0.001304786
181	0xbc87ba62	-0.016568366
182	0xbcaebb67	-0.021329595
183	0x3afa6e62	0.0019106383
184	0xbd1c98d8	-0.0382317
185	0x3cadeaac	0.021230064
186	0xbcd5577d	-0.026042694
187	0xbcbbeb18	-0.02293925
188	0xbd0b2443	-0.03397013
189	0x3d2bd2ae	0.041948967
190	0x3d1d87ca	0.038459577
191	0xbd1351c8	-0.035966665
192	0x3c5bf2c5	0.01342458
193	0x3d077f54	0.033080414
194	0xbb534e53	-0.003224273
195	0xbd2c5dd2	-0.04208166
196	0x3cfef2f2	0.031121705
197	0x3cde095d	0.027104074
198	0x3d54216a	0.05178968
199	0x3d1c6e4e	0.038191132
200	0x3a71e1f1	0.00092270883
201	0x3d42b4e6	0.0475358
202	0xbc310481	-0.0108042965
203	0xbc4f14bd	-0.012639222
204	0x3d2bbf5e	0.04193055
205	0x3ca6f15b	0.02037876
206	0x3a09ab40	0.00052516535
207	0xbd1f965b	-0.03896175
208	0xbc9125ee	-0.017718282
209	0x3aa46864	0.0012543318
210	0x3cbf7ac6	0.023373973
211	0x3d30c5a8	0.04315725
212	0xbcf2c862	-0.029636566
213	0xbcd218d0	-0.025646597
214	0xbd364144	-0.044495836
215	0x3d2abf6b	0.041686457
216	0x3d814ec3	0.06313851
217	0x3c97f4cf	0.018549351
218	0x3cea6d14	0.028616466
219	0xbd6de2c7	-0.0580776
220	0xbb093011	-0.002093319
221	0xbc138ed8	-0.009006225
222	0x3c141cb5	0.009040047
223	0xbcc4f46c	-0.02404233
224	0xbd407bd6	-0.0469931
225	0xbc5ccb69	-0.013476231
226	0x3d191311	0.0373717
227	0x3cdd4660	0.027011096
228	0xbce5348b	-0.027979156
229	0x3c27067d	0.010194418
230	0xbd62bbe3	-0.055354964
231	0xbc2558f9	-0.0100920135
232	0xbd38f4b1	-0.04515523
233	0x3ca43691	0.02004555
234	0x3cb33128	0.021874025
235	0xbb229e31	-0.0024813528
236	0xbc150fa8	-0.009097971
237	0xbd26ab88	-0.04069093
238	0xbbcd61fa	-0.006267783
239	0xbcba8f64	-0.022773452
240	0xbd468583	-0.04846717
241	0xbd185238	-0.037187785
242	0xbcc1c2f2	-0.023652527
243	0x3d18d0a8	0.037308365
244	0x3c07ec04	0.008296017
245	0x3bccaf39	0.006246474
246	0xbc5fa57c	-0.013650294
247	0x3c644b0e	0.01393391
248	0x3d8a79ad	0.06761489
249	0x3c97f6f9	0.018550383
250	0xbd148de5	-0.036268134
251	0xbd4701a5	-0.048585553
252	0xbbad99ac	-0.00529786
253	0xbd73fe04	-0.05956842
254	0xbb6e1b85	-0.003633232
255	0xbc46b772	-0.012128698

fc1.bias f4 [120]
0	0x3db0627b	0.08612534
1	0xb948c299	-0.0001914598
2	0x3b2cae70	0.002634909
3	0x3dee5cef	0.116388194
4	0x3da8948a	0.082314566
5	0x3dac76d7	0.084211044
6	0x3dcfeb4f	0.101523034
7	0x3df7f3c5	0.12107042
8	0xbc19e606	-0.009393221
9	0xbbae0f23	-0.005311863
10	0xbc9fbb29	-0.019498425
11	0x3dbaeb02	0.091268554
12	0x3cd043d8	0.025422975
13	0xbb8e37c8	-0.0043401457
14	0xbd57184d	-0.05251341
15	0x3df5c90a	0.12001236
16	0x3d110a56	0.035410248
17	0x3c130146	0.008972472
18	0x3e0e3927	0.1388899
19	0x3d256bbe	0.040385954
20	0x3dc7fd62	0.09765126
21	0x3bd63c40	0.006537944
22	0xbd86f88f	-0.065903775
23	0x3dd3ce92	0.103421345
24	0x3d912288	0.070866644
25	0x3c36e142	0.011162104
26	0xbd01ea45	-0.031717557
27	0xbc0ea98d	-0.008707416
28	0x3cfb43aa	0.030671913
29	0xbd6e035f	-0.058108684
30	0xbd17b0d3	-0.037033867
31	0x3d86cb11	0.065817006
32	0xbcf1aa86	-0.029500257
33	0xbd5eca8f	-0.054392394
34	0xbd85ff29	-0.065428086
35	0x3e433751	0.1906407
36	0x3da7a028	0.08184844
37	0x3e1531e6	0.14569816
38	0xbd8b073c	-0.06788489
39	0x3c85a326	0.016313147
40	0x3da5ad69	0.08089716
41	0xbc103efc	-0.008804079
42	0x3d8753f9	0.066078134
43	0xbb48b5c2	-0.0030625914
44	0x3df2d95e	0.11857866
45	0xbd666068	-0.056244284
46	0xbdd98279	-0.10620589
47	0x3e094721	0.1340604
48	0x3e22673c	0.15859693
49	0xbb8b5a62	-0.004252718
50	0x3e162054	0.1466077
51	0x3b4521c3	0.0030079938
52	0xbbf97246	-0.0076124994
53	0xbd138af7	-0.0360212
54	0xbc876643	-0.016528254
55	0x3c2028d6	0.009775361
56	0x3cbb92b2	0.022897098
57	0xbd7b1501	-0.061299328
58	0x3ca360be	0.019943591
59	0xbc8f5543	-0.01749671
60	0x3d958c81	0.073021896
61	0x3d3008a5	0.042976994
62	0xbdb17a25	-0.08665875
63	0x3d9ec3a7	0.077521615
64	0xbd447a59	-0.047968242
65	0x3db725d5	0.08942763
66	0xbe06f74f	-0.13180278
67	0xbcced64d	-0.025248671
68	0x3d0bb6e5	0.03410997
69	0x3e08f223	0.13373618
70	0xba53c326	-0.00080780906
71	0x3cc95a36	0.024579149
72	0x3d77eed3	0.060530495
73	0x3e730951	0.23734023
74	0x3d93d1a8	0.07217723
75	0x3dcb2ca7	0.09920626
76	0xbd78283e	-0.060585253
77	0xbd13b493	-0.03606088
78	0x3ca386f7	0.019961817
79	0xbe0ad261	-0.13556816
80	0x3e08d3ad	0.13361998
81	0x3d863763	0.06553533
82	0xbbf45358	-0.0074562244
83	0xbabc2d23	-0.0014356714
84	0x3ca2de32	0.019881342
85	0x3d27a1ff	0.040925976
86	0xbad68507	-0.001636655
87	0xbb077083	-0.0020666427
88	0xbcce15c0	-0.025156856
89	0x3ca8c790	0.020602971
90	0xbca96ac6	-0.020680796
91	0xbd27072a	-0.040778317
92	0x3b8d8c18	0.004319679
93	0x3b533c28	0.00322319
94	0x3dae9eca	0.0852638
95	0xbe3bc401	-0.18336488
96	0x3d2fe569	0.042943392
97	0x3d6c611f	0.05770981
98	0xbcd1f8eb	-0.025631389
99	0xbb559775	-0.0032591496
100	0xbd08dffc	-0.033416733
101	0x3da99f2b	0.08282312
102	0x3d47319f	0.048631307
103	0xbd11d649	-0.03560475
104	0x3d1b1321	0.03786004
105	0x3e42f0bf	0.1903715
106	0x3e8bd73f	0.27312657
107	0x3d8fd678	0.070233285
108	0xbc5e43c1	-0.0135659585
109	0x3d9b9ffa	0.075988725
110	0xbce640c5	-0.028107056
111	0xbb565a2f	-0.0032707562
112	0xbc6617d1	-0.014043764
113	0x3e49c23b	0.19703
114	0x3d141638	0.036154002
115	0x3a315006	0.00067639386
116	0xbd38fc43	-0.04516245
117	0xbd9749e9	-0.07387144
118	0xbd3e9a94	-0.046534136
119	0xbdee26a2	-0.116284624

fc2.weight f4 [84, 120]
0	0x3d6d5f7a	0.05795238
1	0xbc3e75f0	-0.011624798
2	0x3db121cf	0.086490266
3	0x3c90a5c6	0.017657172
4	0x3b8bd169	0.004266907
5	0xbd507597	-0.050893392
6	0x3cdec1fc	0.027192108
7	0xbdb13b5b	-0.08653899
8	0x3d1a38cc	0.037651822
9	0xbdca5443	-0.09879353
10	0xbd542c09	-0.051799808
11	0x3d7f900e	0.06239324
12	0x3dac8ecc	0.08425674
13	0xbd96b1cb	-0.0735813
14	0xbd7adea3	-0.06124748
15	0xbdfc7c19	-0.12328357
16	0xbd96ae7e	-0.073575005
17	0x3d306dcd	0.043073464
18	0xbd96a911	-0.073564656
19	0x3dacb21b	0.084324084
20	0x3d43e4b1	0.04782552
21	0xbcbbfc2b	-0.022947391
22	0xbdb9b10f	-0.09066974
23	0x3dc8ffda	0.09814425
24	0xbe48cab5	-0.19608577
25	0xbdae2ec5	-0.08505014
26	0xbdc1f795	-0.09471051
27	0x3e196187	0.1497861
28	0xbd3dc714	-0.046332434
29	0x3e08a3f4	0.13343793
30	0x3d12ad0d	0.035809565
31	0xbda1f3b3	-0.0790781
32	0xbd51a80a	-0.051185645
33	0x3db84e3c	0.08999297
34	0x3cac1c8a	0.021009702
35	0xbd51de90	-0.051237643
36	0xbda6911d	-0.08133147
37	0xbb54c6d7	-0.003246715
38	0xbdbad0aa	-0.09121831
39	0xbb91187f	-0.004427969
40	0x3e01949f	0.1265435
41	0xbd31ff9f	-0.04345667
42	0xbdf045bb	-0.1173205
43	0x3dbcb1e6	0.09213619
44	0x3c14c699	0.0090805525
45	0x3db2f651	0.087383874
46	0x3d49a82e	0.049232654
47	0x3d8838f6	0.066514894
48	0xbd5438d4	-0.051812008
49	0x3dbfaf13	0.09359565
50	0x3cec7986	0.02886654
51	0xbc51cb20	-0.012804776
52	0x3dc31b6f	0.09526717
53	0xbd247a9e	-0.040156
54	0x3d166785	0.036719818
55	0xbe07cced	-0.13261767
56	0xbcbe9a46	-0.023266923
57	0xbd948f1a	-0.07253857
58	0x3e44555b	0.19173186
59	0xbd3c283c	-0.045936808
60	0x3d097053	0.033554386
61	0xbc2f58e5	-0.010702346
62	0xbd4bfdfc	-0.049802765
63	0xbe0d7a51	-0.13816191
64	0xbd4a8a6b	-0.049448412
65	0x3daaf0de	0.08346723
66	0xbb115f91	-0.0022182206
67	0xbde2c925	-0.110735215
68	0xbe2d13b9	-0.16902055
69	0x3d8205ac	0.06348738
70	0x3c68afe8	0.014202096
71	0x3e052d25	0.13005503
72	0x3d038eb6	0.03211852
73	0xbe220092	-0.1582053
74	0x3d49ebe8	0.049297243
75	0xbc22e78f	-0.009942903
76	0x3cf77a5a	0.030209709
77	0x3cd368c7	0.025806798
78	0x3de6f416	0.112770244
79	0xbde37850	-0.11106932
80	0xbe01493f	-0.12625597
81	0xbdb3fed5	-0.0878884
82	0xbb845c0b	-0.0040392927
83	0x3dc842b8	0.097783506
84	0xbda17f2b	-0.078855835
85	0xbc45ac94	-0.012065072
86	0x3de8b437	0.11362498
87	0x3d8bda66	0.068287656
88	0xbd376be9	-0.044780646
89	0x3cf06142	0.029343251
90	0xbd81e49f	-0.06342434
91	0x3d082b82	0.033244617
92	0xbd69cd9f	-0.05708086
93	0x3c02ab4b	0.00797541
94	0xbdfa9114	-0.12234703
95	0x3d87903e	0.06619309
96	0x3d5f3dfa	0.054502465
97	0x3e1bf6f6	0.15230927
98	0x3e0b0f19	0.13579978
99	0x3c2991df	0.01034972
100	0xbe122dc3	-0.14275269
101	0xbd817bca	-0.06322439
102	0xbd9da3f1	-0.07697285
103	0xbc5e649a	-0.01357379
104	0xbcc6ee45	-0.024283538
105	0x3d325823	0.043541085
106	0x3e19d950	0.15024304
107	0xbdb9b6b8	-0.09068054
108	0xbd1d1e04	-0.038358703
109	0xbdbeff58	-0.09326047
110	0x3d905542	0.07047512
111	0xbdae945a	-0.085243896
112	0x3d6d66c9	0.05795935
113	0xbd38aaea	-0.04508487
114	0x3d8fd371	0.07022751
115	0xbc8c5219	-0.017128991
116	0x3dd528ba	0.104081586
117	0x3c58ba6e	0.013228042
118	0xbdafb7ea	-0.08580001
119	0x3c0fd088	0.008777745
120	0xbc087958	-0.008329712
121	0x3d5aebbd	0.053447474
122	0x3e0a015d	0.13477083
123	0x3b34e723	0.0027603589
124	0x3d7bbe0c	0.06146054
125	0xbd1587df	-0.03650653
126	0x3d00f2f3	0.031481694
127	0xbdd98276	-0.106205866
128	0x3d10ac08	0.03532031
129	0xba459188	-0.00075366395
130	0xbd9534d8	-0.0728547
131	0x3d43dfb7	0.047820773
132	0x3c180404	0.009278301
133	0xba5b68a5	-0.000836978
134	0xbd7a4ca3	-0.061108243
135	0x3d216854	0.039406136
136	0xbd2b34ec	-0.041798517
137	0x3db146cb	0.08656081
138	0xbd75cdde	-0.060010783
139	0xbca58210	-0.02020362
140	0x3d455b46	0.04818275
141	0x3e0f1653	0.1397336
142	0x3d45dc94	0.048306063
143	0x3be86814	0.007092485
144	0x3ccd887e	0.025089499
145	0x3da4f69d	0.0805485
146	0x3d48e62d	0.049047638
147	0x3d291798	0.041282266
148	0xbd5ae22a	-0.053438343
149	0xbde6d6f6	-0.11271469
150	0xbde5b8ef	-0.11216914
151	0x3ddf55bb	0.10905024
152	0x3d862408	0.06549841
153	0xbd30a567	-0.04312649
154	0x3d85de74	0.0653657
155	0x3d444e5c	0.04792629
156	0xbc27f784	-0.010251883
157	0xbcab1330	-0.020883173
158	0x3cd7e83d	0.026355857
159	0xbce73df6	-0.028227787
160	0xbcdcd237	-0.026955707
161	0xbcf00e29	-0.029303627
162	0x3ce97696	0.028498929
163	0xbd7ddc71	-0.061977807
164	0xbdc57c73	-0.096428774
165	0x3dca4438	0.09876293
166	0xbd2a7c81	-0.041622642
167	0xbd7f8441	-0.062381987
168	0xbdb87460	-0.09006572
169	0xbdf8eddc	-0.12154743
170	0xbd5bb437	-0.053638663
171	0x3cfdf32b	0.03099974
172	0xbd921456	-0.07132785
173	0x3d34e830	0.044166744
174	0xbde89aa7	-0.113576226
175	0xbd12f0ed	-0.035874296
176	0x3d565276	0.052324735
177	0xbc1dde11	-0.009635464
178	0x3c9d8e88	0.019233003
179	0x3cf25667	0.029582215
180	0x3d317124	0.04332079
181	0xbda63bd0	-0.08116877
182	0xbc87115b	-0.016487768
183	0xbd573dea	-0.05254928
184	0xbc60deb0	-0.013724968
185	0xbd205e72	-0.03915257
186	0xbd8e121c	-0.06937048
187	0xbd3eacb8	-0.046551436
188	0x3d4c60a5	0.049896855
189	0x3d086b27	0.033305313
190	0xbd15a4bc	-0.036534056
191	0x3d62a0db	0.055329185
192	0x3d44d917	0.048058596
193	0x3cb2ea3d	0.02184021
194	0xbc8d3f1d	-0.017242009
195	0xbd91084c	-0.07081661
196	0xbdd9b434	-0.10630074
197	0xbdba5c15	-0.090995945
198	0x3c88e6f2	0.016711686
199	0x3d4a5e64	0.049406424
200	0x3de0939f	0.109656565
201	0x3d3c122d	0.04591577
202	0x3da61099	0.081086345
203	0xbd3fefb7	-0.04685947
204	0x3d26957b	0.0406699
205	0xbdd0c59a	-0.101939395
206	0xbccc55e7	-0.024943305
207	0xbd1e710c	-0.03868203
208	0xbd90ac0a	-0.07064064
209	0xbd112df8	-0.03544423
210	0xbdac1515	-0.084024586
211	0xbd205cc5	-0.039150972
212	0x3dd92220	0.10602212
213	0xbd92b0e3	-0.07162645
214	0xbdad1986	-0.08452134
215	0xbd57b075	-0.052658517
216	0xbd965daf	-0.073420875
217	0xbc94bdb7	-0.01815687
218	0xbd96b080	-0.073578835
219	0xbe0e4e06	-0.13896951
220	0x3dc6217f	0.096743576
221	0x3d98335c	0.07431671
222	0xbd31ac69	-0.043377314
223	0xbc4d643c	-0.012536105
224	0x3d89af75	0.06722919
225	0x3dedc7d0	0.11610377
226	0x3d47a4d8	0.04874119
227	0x3d1e3836	0.038627826
228	0xbdc5cc65	-0.09658126
229	0x3dbce316	0.09223001
230	0xbdd286bc	-0.10279605
231	0x3b82f7cc	0.003996825
232	0xbcca984a	-0.02473082
233	0xbd2e1fd0	-0.042510808
234	0x3dbf6f7d	0.093474366
235	0x3c3c0f21	0.011478216
236	0xbdb06409	-0.0861283
237	0xbb9901f5	-0.0046694227
238	0xbd43b896	-0.047783457
239	0xbd5774d1	-0.05260164
240	0xbda2b44a	-0.07944544
241	0xbd480689	-0.048834357
242	0xbd31b757	-0.043387737
243	0xbd873966	-0.06602745
244	0x3e101a5c	0.14072555
245	0x3dc3fd09	0.09569747
246	0xbd47debc	-0.0487964
247	0x3e279800	0.16366577
248	0x3d3ef6cb	0.04662208
249	0xbdb24b6d	-0.087057926
250	0x3cac4d6b	0.02103301
251	0xbdbf11f9	-0.093296
252	0x3b8c8db6	0.004289354
253	0x3d921a8f	0.07133972
254	0xbd425831	-0.047447387
255	0x3d44a859	0.04801211

fc2.bias f4 [84]
0	0x3cee3b81	0.029081108
1	0x3db0debe	0.08636235
2	0x3e644c3e	0.22294709
3	0x3d8a5bcb	0.06755789
4	0xbaf71cda	-0.0018853203
5	0x3e15158d	0.14559002
6	0xbdc439f4	-0.09581366
7	0xbc8bce8b	-0.01706626
8	0xbd6a0d0c	-0.05714135
9	0xbe36725f	-0.17817067
10	0x3dda9d7c	0.10674569
11	0x3d1d694a	0.03843049
12	0x3e14b9f1	0.14524056
13	0x3b4fe984	0.003172488
14	0x3e5abb97	0.21360622
15	0x3e0a9f8c	0.13537425
16	0xbd650b0e	-0.055918746
17	0x3c526714	0.012841959
18	0xbd4f4a57	-0.050608005
19	0xbda77fa8	-0.08178645
20	0xbe28cd09	-0.16484465
21	0x3e638e89	0.22222342
22	0x3e1c55b7	0.15267073
23	0x3d86499d	0.06557009
24	0x3d2dea14	0.042459562
25	0x3e8a89cd	0.2705826
26	0xbcc2e5f0	-0.023791283
27	0x3e08a239	0.13343133
28	0x3ec912df	0.3927221
29	0x3e188f37	0.14898382
30	0xbdb60856	-0.08888309
31	0x3d1db624	0.03850378
32	0x3d9543ae	0.072882995
33	0x3dc9fdd8	0.0986287
34	0x3d89ef13	0.06735053
35	0x3e2f3fc0	0.17114162
36	0xbd85ee5e	-0.065396056
37	0xbdb8c890	-0.09022629
38	0x3e55eb3d	0.20890518
39	0x3b946bba	0.0045294436
40	0x3e166621	0.14687397
41	0x3e8ac64c	0.27104414
42	0x3e0fd26f	0.14045118
43	0xbc30b05b	-0.010784234
44	0xbbc38005	-0.005966189
45	0x3eaaf657	0.33391067
46	0xbd3459ec	-0.04403107
47	0xbd9e8492	-0.077401295
48	0x3e393116	0.18085131
49	0xbd47853b	-0.048711043
50	0x3e6c5285	0.23078354
51	0x3da87dae	0.082270965
52	0xbad5a84d	-0.0016300768
53	0x3dfb406c	0.12268147
54	0x3d4edc75	0.050503213
55	0x3e511a0b	0.20420091
56	0x3cc563a3	0.024095362
57	0x3d10d1cd	0.03535633
58	0x3e485be1	0.19566299
59	0xbd7dc627	-0.06195655
60	0xbd48d3c1	-0.04903007
61	0x3e289cca	0.1646606
62	0x3e8abe2d	0.27098218
63	0xbded9920	-0.11601472
64	0xbe4fccbc	-0.20292944
65	0x3df024cd	0.11725769
66	0xbcb155cf	-0.021647362
67	0xbdb17640	-0.086651325
68	0x3e0254d4	0.12727672
69	0x3d4b4fcf	0.04963666
70	0xbd7d23e1	-0.061801795
71	0xbda0dedc	-0.07855007
72	0x3e2c8360	0.1684699
73	0xbc6a2535	-0.014291097
74	0xbd2851a9	-0.041093502
75	0x3cb305de	0.021853384
76	0xbd0989c0	-0.033578634
77	0xbdbf47c6	-0.093398616
78	0x3e542e04	0.20720679
79	0xbc164895	-0.009172578
80	0xbcc682cd	-0.024232293
81	0xbd16ee02	-0.036848076
82	0x3e13042c	0.1435706
83	0x3d29d2e2	0.04146088

fc3.weight f4 [10, 84]
0	0xbe3335d5	-0.17501004
1	0x3e9abd74	0.30222666
2	0xbe12477a	-0.14285079
3	0xbdf2fb93	-0.1186439
4	0xbe135cf9	-0.14390935
5	0xbe8aabd1	-0.2708421
6	0xbe1c1819	-0.15243568
7	0xbd989163	-0.07449605
8	0xbd82adb1	-0.06380785
9	0x3d1f8c63	0.038952243
10	0xbde3b486	-0.111184165
11	0x3e3ef0c4	0.18646532
12	0x3e2d6ffb	0.16937248
13	0xbe1d3ad3	-0.15354471
14	0xbde762cb	-0.1129814
15	0x3e5eeb58	0.21769464
16	0x3d8d0127	0.068849854
17	0xbbc81fe4	-0.0061073173
18	0x3e4df416	0.20112643
19	0xbd17e98a	-0.037087955
20	0x3c9ad70e	0.018901374
21	0x3e6f3cd2	0.23363045
22	0xbdc4df78	-0.09612936
23	0x3e893ac1	0.26802638
24	0xbe52fc40	-0.20604038
25	0xbe32a490	-0.17445588
26	0x389faa5a	7.613441e-05
27	0x3e146fe1	0.14495803
28	0xbe5243c4	-0.20533663
29	0x3ddca944	0.10774472
30	0x3e2b27c6	0.16714391
31	0x3d70d96b	0.058801096
32	0x3cdbb8a4	0.026821442
33	0xbd8beb19	-0.06831951
34	0x3e38652f	0.18007348
35	0x3d7ad67e	0.061239712
36	0x3e27212d	0.1632125
37	0xbd323c7c	-0.043514714
38	0x3e92a218	0.28639293
39	0x3ce74682	0.028231863
40	0xbde8a24a	-0.11359079
41	0x3e8267d1	0.2546983
42	0xbc842462	-0.01613063
43	0x3d5a5d8c	0.05331187
44	0xbda6f4ba	-0.08152147
45	0x3d713ee0	0.058897853
46	0x3d10175a	0.03517852
47	0x3daeebdd	0.08541081
48	0xbd0ba780	-0.034095287
49	0xbc957f4e	-0.01824918
50	0x3e85ade8	0.26109242
51	0xbd32db07	-0.043665912
52	0xbd5ab5ca	-0.053396024
53	0xbdedb141	-0.11606074
54	0x3d13a973	0.03605027
55	0x3d315249	0.043291364
56	0x3dd428ad	0.10359321
57	0x3e94c2f4	0.29054987
58	0xbdb091d8	-0.086215675
59	0xbd867339	-0.06564946
60	0x3ce72186	0.028214227
61	0xbdb33569	-0.087504216
62	0xbcb04e5c	-0.02152174
63	0x3c1d6b8b	0.00960816
64	0x3e381109	0.17975248
65	0xbc9ce7ec	-0.019153558
66	0xbda021d0	-0.07818949
67	0x3dbab289	0.09116084
68	0xbe894a58	-0.26814532
69	0x3e5200f5	0.20508178
70	0x3dcf0d12	0.10109915
71	0x3c9b9f17	0.018996758
72	0xbe2477bc	-0.160613
73	0x3d8c1c6d	0.06841359
74	0x3e14b00d	0.14520283
75	0xbd52350d	-0.051320124
76	0xbd7fca72	-0.062448926
77	0x3caaa310	0.020829707
78	0x3dedb69c	0.116070956
79	0x3d1e8db9	0.038709376
80	0x3d5e5318	0.054278463
81	0xbdf20a7b	-0.11818405
82	0xbe42237e	-0.18958852
83	0xbcfd3629	-0.030909615
84	0xbe611979	-0.21982373
85	0xbd13eec5	-0.03611638
86	0x3d0be5cd	0.034154702
87	0xbda48048	-0.0803228
88	0x3eb37cd5	0.35056177
89	0xbdff34af	-0.124612205
90	0x3e521f71	0.20519806
91	0x3d929f13	0.07159247
92	0xbda3bf53	-0.079954766
93	0xba29b058	-0.00064731156
94	0x3c310361	0.010804028
95	0xbd683f67	-0.05670109
96	0xbd3810dc	-0.044937953
97	0xbdc0b12a	-0.09408791
98	0xbe4dedad	-0.20110197
99	0x3dd73d70	0.10509765
100	0x3cac4a94	0.021031655
101	0x3e4b0875	0.19827445
102	0x3d91bfde	0.07116674
103	0x3d38be2f	0.04510325
104	0x3e6ddbf6	0.2322844
105	0x3e9a747b	0.30166993
106	0xbdec03b3	-0.11524143
107	0x3ddc8d64	0.107691556
108	0x3dbd402d	0.09240756
109	0xbd6fba10	-0.058527052
110	0xbd9c669c	-0.07636759
111	0xbcd28d58	-0.025702164
112	0xbee4db2b	-0.44698462
113	0xbc9eab0d	-0.019368673
114	0xbbf35a44	-0.007426532
115	0x3b64366a	0.0034822472
116	0xbc1d8341	-0.009613813
117	0x3cce5e51	0.025191458
118	0xbc543f03	-0.012954476
119	0x3e3ec801	0.18630983
120	0x3e3eb273	0.1862276
121	0x3df5e44e	0.12006436
122	0xbe2f57d0	-0.17123342
123	0xbd875a36	-0.06609003
124	0xb9bd8aa4	-0.00036152184
125	0xbd8a0b0a	-0.06740387
126	0xbdbd8e0f	-0.09255611
127	0xbc0ad84a	-0.008474419
128	0xbd3eea09	-0.046609912
129	0xbe8dd23d	-0.27699462
130	0x3cbed814	0.023296393
131	0x3c252cb0	0.010081455
132	0xbd8f5314	-0.06998268
133	0x3baf2137	0.0053445357
134	0xbe5f2289	-0.21790518
135	0x3d34942b	0.044086616
136	0xbe0adcf5	-0.13560851
137	0x3c67eceb	0.014155607
138	0x3b473432	0.00303961
139	0xbd46d66f	-0.048544344
140	0x3dee0c16	0.11623399
141	0xbd3cc174	-0.04608293
142	0xbe28146f	-0.16414045
143	0x3da75b1c	0.081716746
144	0x3d8c0dc1	0.06838561
145	0x3cab7dcf	0.020934014
146	0x3c9f0a1f	0.019414006
147	0x3db375a5	0.08762673
148	0x3ecf329c	0.404683
149	0xbd22dcf6	-0.039761506
150	0x3bc8d9a7	0.006129462
151	0xbd811600	-0.06303024
152	0xbe01bbd6	-0.1266931
153	0x3e7d2776	0.24722084
154	0x3c6283b6	0.013825348
155	0x3b8f5858	0.004374545
156	0x3dbc171e	0.09184097
157	0x3e204767	0.15652238
158	0x3cca6bc6	0.024709594
159	0xbc3218ec	-0.0108702
160	0xbd1b7e4f	-0.037962254
161	0xbcee56d0	-0.02909413
162	0xbe9b05a7	-0.3027775
163	0x3ca9a944	0.020710595
164	0x3d528e77	0.051405396
165	0xbdc3d89c	-0.09562799
166	0xbdf5d77b	-0.1200399
167	0xbde949ed	-0.11391053
168	0xbccdbfe1	-0.025115909
169	0x3dcff94f	0.10154974
170	0x3e3b2319	0.18275107
171	0x3b73c18e	0.0037194225
172	0xbc89dc72	-0.01682875
173	0x3de6b174	0.11264315
174	0xbd19d534	-0.037556842
175	0xbe064613	-0.13112669
176	0x3cc14479	0.02359222
177	0xbe0e2eea	-0.13885084
178	0x3dcc6910	0.099809766
179	0x3e0deb3f	0.1385927
180	0x3e434bc5	0.19071873
181	0xbe10598e	-0.14096662
182	0x3e7655d4	0.24056178
183	0x3d438bee	0.04774087
184	0x3c034a9d	0.008013395
185	0x3d473ea4	0.048643723
186	0xbe224d0a	-0.158497
187	0x3d8e702c	0.06954989
188	0xbdafe524	-0.08588627
189	0xbe0d8bfc	-0.13822931
190	0x3e7adf6b	0.2449929
191	0x3e6157ac	0.220061
192	0x3db82647	0.08991676
193	0xbd960306	-0.073247954
194	0xbd44a932	-0.04801292
195	0xbdaf56a5	-0.08561448
196	0x3e77518b	0.241522
197	0xbd7281ad	-0.0592057
198	0x3d193a58	0.037409157
199	0x3d748abe	0.059702627
200	0x3e0e70f5	0.13910277
201	0x3e63349b	0.22188036
202	0xbd06d123	-0.032914292
203	0xbdfb8ada	-0.12282343
204	0xbddd5231	-0.108066924
205	0x3dc26568	0.09491998
206	0xbc739273	-0.014866459
207	0xbd16212d	-0.036652733
208	0x3de6bab3	0.11266079
209	0x3e340f2f	0.17583917
210	0x3d724a5e	0.059152953
211	0x3de1b792	0.110213414
212	0xbd945500	-0.07242775
213	0x3e391631	0.18074872
214	0x3b55c158	0.0032616463
215	0xbd6272fa	-0.05528543
216	0x3e5a5782	0.21322444
217	0xbd26b608	-0.040700942
218	0x3e22b6aa	0.15889993
219	0xbe15a130	-0.1461227
220	0x3c40033f	0.011719524
221	0xbda35e37	-0.079769544
222	0x3c8ee781	0.017444374
223	0xbc812df1	-0.015768977
224	0xbdb5deeb	-0.08880409
225	0x3d522a0e	0.051309638
226	0xbdbadcf4	-0.09124175
227	0xbd45c890	-0.048286974
228	0x3c90bbc5	0.01766766
229	0x3d48580a	0.048912086
230	0xbe7ce664	-0.24697262
231	0xbb2d8c7d	-0.0026481443
232	0xbe3b7ed4	-0.183101
233	0x3dcc4735	0.09974519
234	0xbdda261c	-0.106518
235	0xbdd9eff7	-0.10641473
236	0xbe002b2a	-0.12516466
237	0xbcc34bbe	-0.023839828
238	0xbe1a8ff3	-0.15093975
239	0x3d7badf9	0.06144521
240	0x3d4342eb	0.04767124
241	0xbcc3abf6	-0.023885708
242	0x3db4319c	0.08798525
243	0x3cec8179	0.028870331
244	0xbdb317bb	-0.087447606
245	0x3d99b3bf	0.07504987
246	0x3e7721a7	0.24133931
247	0x3dfd35c6	0.12363772
248	0xbd4fd1cf	-0.0507372
249	0xbd076366	-0.033053778
250	0x3e0a9f44	0.13537318
251	0xbd6b1062	-0.05738867
252	0x3d10912c	0.035294697
253	0xbd9f7f62	-0.07787968
254	0x3e30ae08	0.17253888
255	0x3d93bcd8	0.072137535

fc3.bias f4 [10]
0	0xbdc74c1c	-0.097313136
1	0xbf1aa0d0	-0.6040163
2	0x3e28b951	0.16476943
3	0x3e8bba7c	0.27290714
4	0x3ebf99ff	0.37422177
5	0xbdd9aaca	-0.106282786
6	0xbd042398	-0.032260507
7	0xbec4911b	-0.38391957
8	0x3f1db7f3	0.6160881
9	0xbe5125c5	-0.20424564
